mixed_mnist_cnn.pth (torch, 84632 bytes, 6 tensors)

conv1.weight f4 [16, 1, 3, 3]
-0.20396787 -0.26148227 0.025328971 0.16761018 0.34672397 0.2521502 -0.1736412 0.26433998
0.04093169 0.02538514 0.52774775 0.46933582 0.24484251 -0.12231372 0.4543193 -0.61141807
-0.6834793 -0.32073763 -0.01246772 0.23101115 0.33883014 -0.3275882 -0.5874832 -0.25544786
0.21439733 0.3120378 -0.13647825 0.06685894 0.27227014 -0.16948734 -0.3592537 0.52880204
0.23973204 -0.7280252 -0.18214537 0.46593982 -0.11153159 -0.45271462 -0.15287438 -0.2432307
-0.34832716 0.17107704 -0.16696148 -0.32693738 -0.4015134 -0.538106 -0.5772087 -0.16487348
0.19514877 -0.09486434 -0.3513615 0.20151314 0.41959965 0.2305924 0.42599136 -0.03328727
-0.47503644 0.18887325 -0.26778123 0.13416265 -0.13184816 -0.2738444 0.37029934 0.31275207
0.21804895 -0.48830906 0.43780503 -0.14775975 -0.13102527 -0.33417976 -0.43858474 -0.37277734
0.23193331 0.35938028 -0.1885978 -0.10837571 0.32277837 0.14265308 0.04581713 0.19020124
0.16685295 -0.40297258 0.008360157 -0.43332535 0.04256219 -0.16786237 -0.19785441 0.5142268
0.3338295 0.30102932 -0.5278681 -0.09927004 0.14486526 -0.34247798 -0.18864857 0.46777213
0.120182164 -0.15814598 0.5715713 0.4955472 0.08786705 -0.3831029 -0.360297 -0.4520162
-0.2233981 -0.2723568 -0.0698065 -0.03322143 0.36072692 0.5388554 0.42658877 0.075794175
-0.119015075 -0.39091134 -0.47680074 -0.52113557 0.04273647 -0.08385238 0.31555724 0.2263041
0.45995536 0.3576205 -0.20257093 0.088869296 -0.06689211 -0.56646764 -0.23814751 -0.024672287
0.40395066 -0.116941504 0.17551726 0.12494014 0.19890513 0.2332399 0.2272939 0.16537902
0.4633547 -0.2647296 0.4561941 -0.2711806 -0.49941915 0.25604272 -0.43048579 0.087164536
00000000: f4dc 50be 01e1 85be b47e cf3c 01a2 2b3e
00000010: ce85 b13e d519 813e 00cf 31be 9257 873e
00000020: fda7 273d 7ff4 cf3c 7a1a 073f c94c f03e
00000030: ffb7 7a3e 9e7f fabd 8a9c e83e e585 1cbf
00000040: 80f8 2ebf b937 a4be 6845 4cbc 308e 6c3e
00000050: 257b ad3e a4b9 a7be 4d65 16bf 10ca 82be
00000060: f98a 5b3e 6bc3 9f3e f4c0 0bbe 57ed 883d
00000070: fe66 8b3e 178e 2dbe 1af0 b7be 925f 073f
00000080: 517c 753e dc5f 3abf 5184 3abe aa8f ee3e
00000090: ad6a e4bd 36ca e7be 1a8b 1cbe 7811 79be
000000a0: f057 b2be d22e 2f3e f3f7 2abe 5664 a7be
000000b0: 2a93 cdbe 51c1 09bf f3c3 13bf 98d4 28be
000000c0: 14d5 473e 3c48 c2bd a8e5 b3be 7659 4e3e
000000d0: c4d5 d63e 6a20 6c3e 8a1b da3e 3c58 08bd
000000e0: fa37 f3be fd67 413e 9f1a 89be ef61 093e
000000f0: 3403 07be 5535 8cbe e097 bd3e 0a21 a03e
00000100: 3948 5f3e a503 fabe fb27 e03e 554e 17be
00000110: 7d2b 06be 9c19 abbe 2e8e e0be acdc bebe
00000120: ed7f 6d3e b100 b83e c81f 41be 16f4 ddbd
00000130: 3543 a53e a613 123e beaa 3b3d 1dc4 423e
00000140: 80db 2a3e 6c52 cebe 0af9 083c d2dc ddbe
00000150: b155 2e3d 1de4 2bbe 599a 4abe 5ea4 033f
00000160: b3eb aa3e 8420 9a3e 5d22 07bf 174e cbbd
00000170: 8f57 143e 4659 afbe 172d 41be d47f ef3e
00000180: 1122 f63d 05f1 21be 7f52 123f 5db8 fd3e
00000190: a4f3 b33d 1026 c4be d978 b8be ab6e e7be
000001a0: 79c2 64be 5a72 8bbe b6f6 8ebd 3213 08bd
000001b0: 33b1 b83e 6df2 093f d869 da3e fa39 9b3d
000001c0: 2dbe f3bd 8825 c8be 3a1f f4be 2469 05bf
000001d0: 700c 2f3d ccba abbd b890 a13e 43bc 673e
000001e0: 457f eb3e 091a b73e c16e 4fbe 1b01 b63d
000001f0: bbfe 88bd 0604 11bf f1dc 73be 891d cabc
00000200: 9fd2 ce3e 077f efbd ccba 333e 9ee0 ff3d
00000210: c9ad 4b3e 71d6 6e3e bbbf 683e 1e59 293e
00000220: d43c ed3e a38a 87be 4692 e93e 2fd8 8abe
00000230: deb3 ffbe 0818 833e a268 dcbe 5283 b23d

conv1.bias f4 [16]
-0.2528895 -0.008463313 -0.072016954 -0.2623163 -0.07066925 0.26012224 -0.03708061 -0.22387812
-0.33689737 0.079068705 -0.13362117 0.07712514 0.11011036 0.19478586 0.0031212352 0.15231423
00000000: bc7a 81be b5a9 0abc a07d 93bd 524e 86be
00000010: 0abb 90bd be2e 853e d6e1 17bd 4e40 65be
00000020: d07d acbe c6ee a13d fdd3 08be c9f3 9d3d
00000030: 8a81 e13d f275 473e a38d 4c3b 43f8 1b3e

conv2.weight f4 [32, 16, 3, 3]
0.036147527 -0.13650991 -0.130444 -0.054495644 -0.25137967 0.10219702 -0.36168197 0.078339115
0.19231172 -0.05251694 -0.19981925 -0.14709422 0.021834817 -0.17727579 -0.57021314 -0.06774739
-0.25285795 0.047032185 -0.01827095 -0.22624767 -0.2323607 0.047540545 -0.3401692 -0.06288764
-0.10726465 -0.064411916 0.17741586 -0.09918456 -0.40839916 -0.1687931 -0.07816824 -0.14662954
0.09402645 -0.36705574 0.16188322 0.14392887 -0.08006514 -0.033803336 -0.087360136 -0.06786704
-0.058349714 -0.057784893 0.057212196 -0.09117583 -0.022874607 0.091292374 -0.17152834 0.028608046
0.0047306293 -0.1409836 0.081344105 -0.11312054 0.03838757 -0.036821093 0.07414423 0.046504013
0.10674427 0.15653343 0.19363862 0.22817892 0.05573734 0.20269842 0.027331902 0.058909986
0.08649482 0.15150478 0.21351983 0.10466199 0.10044106 0.1674597 0.10665452 -0.14796114
0.12539008 0.024843892 -0.26423788 0.060581252 -0.25375327 0.03168839 -0.33018142 -0.16315414
0.082465336 0.03072448 -0.31625852 -0.07428851 -0.11341567 -0.17983422 0.11605705 -0.31836918
-0.04549793 0.10864741 -0.08192952 -0.30375448 -0.11858974 -0.0045127394 0.04306018 0.05866277
-0.1574643 0.08349994 0.065498784 -0.14496508 -0.0731887 0.07380187 0.13844499 -0.032927193
0.013148213 0.08464803 0.02269972 -0.03223973 -0.12677577 -0.025868239 -0.016213823 0.04828149
-0.062898494 -0.18476415 0.18799134 -0.07119767 0.024510954 -0.011828785 -0.05912949 -0.07262549
0.16476947 0.050492007 -0.12876035 -0.034680817 -0.117444485 0.024459725 0.08994799 -0.11128997
-0.16268376 -0.08213538 -0.16009752 0.13306767 -0.26768705 -0.028913992 0.08649177 0.00095097395
0.09311358 0.16932203 0.057455234 0.07121642 -0.037411455 0.061722916 -0.013884001 -0.1118274
-0.029240003 -0.16593717 -0.085414626 -0.13673267 0.021178927 -0.03839011 0.088102534 -0.026802508
-0.020805651 -0.021651763 0.020176807 -0.26706326 -0.031453595 0.14217006 0.12232822 0.10300208
0.0104986 -0.25997746 -0.14768487 0.083186746 0.12755775 0.21424483 0.04376272 0.09327696
0.063906744 0.09611465 -0.019192135 -0.13869335 0.046765383 0.01014457 0.040405553 0.0067738765
0.041273892 -0.09677342 -0.07030489 -0.05359379 -0.13742863 -0.10320058 -0.11724744 -0.03135522
-0.3560006 -0.15284413 -0.23874244 -0.21905577 -0.14371036 -0.019887695 0.03283697 0.11162497
-0.014800125 -0.025228621 -0.08494726 -0.014621682 -0.19551404 -0.17213243 0.17372309 0.032905657
0.07770605 0.17276698 0.10956731 0.16221546 0.09666553 0.13578175 0.06610189 0.045852944
-0.055873986 -0.03235593 -0.20615621 -0.011951437 0.054504573 -0.034203388 0.07670494 0.100807935
-0.1518168 -0.046508964 -0.22266269 -0.13912223 0.032003213 -0.016971352 -0.025914174 0.028738087
-0.06631912 -0.10856108 0.07314097 0.13485497 0.12925889 0.10398982 0.00285308 0.032100566
-0.09429412 -0.03656497 0.0036190096 -0.026549092 0.108810596 -0.0513468 0.015641209 0.10002855
-0.027331779 -0.05713849 0.069435775 -0.029004876 -0.048188906 0.03803741 -0.09203423 -0.24744156
-0.11725618 -0.0353099 0.016200222 0.11485931 0.016355684 0.044560466 -0.13716547 -0.03808179
00000000: 6e0f 143d 41c9 0bbe 1d93 05be d336 5fbd
00000010: d6b4 80be ac4c d13d 612e b9be 4270 a03d
00000020: 5ded 443e 011c 57bd 6b9d 4cbe de9f 16be
00000030: eede b23c c987 35be 7df9 11bf 25bf 8abd
00000040: 9976 81be d2a4 403d f6ac 95bc 78ad 67be
00000050: f7ef 6dbe e0b9 423d a82a aebe 3ccb 80bd
00000060: 92ad dbbd 65ea 83bd 81ac 353e 4621 cbbd
00000070: b219 d1be 19d8 2cbe ac16 a0bd 0e26 16be
00000080: f090 c03d bbee bbbe b7c4 253e 1762 133e
00000090: 31f9 a3bd 5e75 0abd dfe9 b2bd e0fd 8abd
000000a0: 1c00 6fbd daaf 6cbd 5657 6a3d 65ba babd
000000b0: 8763 bbbc 7ff7 ba3d 20a5 2fbe 6c5b ea3c
000000c0: 6503 9b3b 015e 10be bd97 a63d beab e7bd
000000d0: 493c 1d3d b7d1 16bd eed8 973d fe7a 3e3d
000000e0: bd9c da3d 4d4a 203e 3449 463e bca7 693e
000000f0: d64c 643d 2d90 4f3e 27e7 df3c 994b 713d
00000100: 3224 b13d 1224 1b3e f1a4 5a3e 0759 d63d
00000110: 0bb4 cd3d 8e7a 2b3e af6d da3d 2083 17be
00000120: 4266 003e 6b85 cb3c 304a 87be 0c24 783d
00000130: f3eb 81be afcb 013d 8a0d a9be e111 27be
00000140: 96e3 a83d e8b1 fb3c a3ec a1be 9324 98bd
00000150: 7a46 e8bd 7626 38be 52af ed3d 4901 a3be
00000160: 0a5c 3abd 8982 de3d aaca a7bd b585 9bbe
00000170: 2ddf f2bd 9adf 93bb df5f 303d 5f48 703d
00000180: 523e 21be 0402 ab3d 3a24 863d ba71 14be
00000190: f5e3 95bd 6f25 973d 86c4 0d3e aade 06bd
000001a0: 9a6b 573c f25b ad3d c3f4 b93c cf0d 04bd
000001b0: 82d1 01be a1e9 d3bc dad2 84bc d0c2 453d
000001c0: edd0 80bd d032 3dbe cd80 403e 16d0 91bd
000001d0: 32cb c83c 85cd 41bc c431 72bd acbc 94bd
000001e0: 54b9 283e b5d0 4e3d c1d9 03be 790d 0ebd
000001f0: bc86 f0bd c35f c83c a736 b83d ffeb e3bd
00000200: 9296 26be 9836 a8bd 9bf0 23be e442 083e
00000210: 470e 89be 09dd ecbc 9922 b13d c84a 793a
00000220: 55b2 be3d c162 2d3e 2e56 6b3d ead9 913d
00000230: c13c 19bd 2bd1 7c3d b979 63bc c405 e5bd
00000240: bb88 efbc 6feb 29be dded aebd a603 0cbe
00000250: 6e7f ad3c f33e 1dbd 1a6f b43d ef90 dbbc
00000260: 9d70 aabc 0a5f b1bc d549 a53c 84bc 88be
00000270: 7cd5 00bd 0795 113e 3887 fa3d c1f2 d23d
00000280: 5202 2c3c c41b 85be b43a 17be d05d aa3d
00000290: 809e 023e ff62 5b3e 8a40 333d fe07 bf3d
000002a0: 8ae1 823d c2d7 c43d d338 9dbc a105 0ebe
000002b0: 0f8d 3f3d 6935 263c 4b80 253d 65f7 dd3b
000002c0: d00e 293d 2531 c6bd 03fc 8fbd 2985 5bbd
000002d0: 17ba 0cbe d35a d3bd 6d1f f0bd 556e 00bd
000002e0: b645 b6be 2c83 1cbe e678 74be 2850 60be
000002f0: cf28 13be 85eb a2bc 0f80 063d a29b e43d
00000300: 397c 72bc 41ac cebc d4f8 adbd c88f 6fbc
00000310: d534 48be 7c43 30be 77e4 313e 15c8 063d
00000320: 5924 9f3d d4e9 303e d364 e03d cf1b 263e
00000330: 94f8 c53d 5f0a 0b3e 6d60 873d 4cd0 3b3d
00000340: 1fdc 64bd a787 04bd 9d1a 53be f6cf 43bc
00000350: 3040 5f3d da18 0cbd 7b17 9d3d 6474 ce3d
00000360: dd75 1bbe 2f80 3ebd b001 64be 0f76 0ebe
00000370: cd15 033d 8107 8bbc f649 d4bc 236c eb3c
00000380: 52d2 87bd 4655 debd efca 953d 6c17 0a3e
00000390: 715c 043e 9df8 d43d bdfa 3a3b e27b 033d
000003a0: 471d c1bd 26c5 15bd e82c 6d3b 7b7d d9bc
000003b0: 17d8 de3d 0651 52bd fe21 803c c5db cc3d
000003c0: e5e6 dfbc 0d0a 6abd 5834 8e3d a29b edbc
000003d0: bb61 45bd 1dcd 1b3d 717c bcbd 5261 7dbe
000003e0: 0224 f0bd 1da1 10bd 54b6 843c 5c3b eb3d
000003f0: 5bfc 853c 0985 363d 1b75 0cbe a7fb 1bbd

conv2.bias f4 [32]
0.00050198945 0.0045401556 -0.061632298 -0.06036862 0.02898065 -0.15268429 -0.02841121 -0.059209034
-0.16703239 -0.021511674 -0.13264689 -0.013051239 -0.010437427 -0.09041975 -0.104800835 -0.016719054
-0.050673496 -0.021014888 -0.04343918 -0.047732078 -0.05867883 -0.09552295 -0.0448652 -0.0017503286
-0.027397966 -0.018839315 0.11015265 -0.044068284 -0.07012509 -0.081869535 -0.1288466 -0.016336089
00000000: f197 033a 96c5 943b 2672 7cbd 1645 77bd
00000010: d468 ed3c 4559 1cbe a0be e8bc 2c85 72bd
00000020: 8a0a 2bbe 4039 b0bc 96d4 07be ddd4 55bc
00000030: be01 2bbc fd2d b9bd d2a1 d6bd 66f6 88bc
00000040: 038f 4fbd 6a27 acbc 48ed 31bd b682 43bd
00000050: 3659 70bd 89a1 c3bd 92c4 37bd 486b e5ba
00000060: b371 e0bc e854 9abc b697 e13d f280 34bd
00000070: be9d 8fbd 37ab a7bd 5df0 03be 43d3 85bc

fc.weight f4 [10, 1568]
0.031431884 0.007714884 -0.025861828 -0.03375843 -0.010857665 -0.012465515 -0.02363906 0.0537712
0.05810881 0.034702625 -0.021881131 -0.1740248 -0.28976244 -0.070529416 0.017783383 0.0655468
-0.007048681 -0.09248052 -0.13001145 -0.17073601 -0.0697854 0.039106663 -0.0074435878 -0.052074406
0.09601959 0.14205858 0.035713963 0.01725686 -0.053792156 -0.15658364 -0.07434991 0.03514604
0.17234012 0.051375996 -0.0047009448 -0.027147327 -0.14813487 -0.49833792 -0.0019732402 0.07001455
-0.0057164137 -0.09016238 0.021331156 -0.0017043352 -0.046338063 -0.05483743 0.08113318 -0.051639322
-0.0037593758 -0.053954072 -0.082304314 -0.10782506 0.033259198 -0.11512714 -0.012544242 -0.10094058
-0.04028484 -0.081322834 -0.05607377 -0.05745049 0.06231968 0.0140371965 0.12065472 0.024866592
0.16005777 0.03941723 0.0024094149 -0.0021672994 -0.011081523 -0.08821996 -0.00076394127 0.08302082
0.009841887 -0.18710774 -0.056294598 -0.040066324 -0.1732217 0.015361822 -0.037026785 0.06132065
0.00045020512 -0.04333838 -0.15721264 -0.19554624 -0.04795786 -0.006139873 0.13270204 -0.076572455
-0.031917002 -0.097107075 -0.019873055 -0.0757715 0.0042474717 0.057619058 -0.024572292 -0.11124534
-0.02006297 -0.013448728 0.0261861 0.039092623 -0.021420589 -0.058688924 -0.043987032 -0.05574887
-0.026772136 -0.074602365 -0.06508316 -0.01658844 0.0055607585 -0.03441121 -0.022768114 0.09907095
0.1381437 0.013557642 -0.17474988 -0.098075844 0.09710087 -0.041860588 -0.033564743 -0.090905055
-0.41266555 -0.33337453 -0.08727941 0.14927904 -0.22446892 -0.40569323 0.048173085 -0.13582976
-0.20872496 0.012058785 0.20732367 -0.022853177 -0.12571973 0.02061347 0.009297732 0.122019246
-0.00077242573 0.05959212 -0.025695171 0.044256575 0.07829585 0.02840619 0.17133692 -0.28945816
-0.30551642 0.108438775 0.08125122 -0.0029298498 -0.040170614 0.03226675 -0.08695905 -0.04079427
-0.02899856 -0.061510142 -0.030224554 0.046404775 0.03879582 -0.011933823 -0.09180221 -0.03759558
-0.061533187 0.0008597139 0.111643076 0.025348319 0.060100846 0.09657984 0.043997865 -0.04645358
-0.09166673 0.061226007 -0.007862368 -0.27606392 0.0059669074 0.048188146 -0.023282912 -0.020975355
0.1066545 -0.03449708 -0.08629643 -0.037110154 -0.056262195 0.027075639 0.009338976 0.120642275
0.013411379 0.09058334 0.055503074 0.014046142 -0.024472786 -0.039790086 -0.013370696 0.0054783146
-0.02000206 -0.053045344 -0.013479161 -0.019116594 -0.052469198 0.07070133 -0.09108566 -0.12366269
-0.18885462 -0.04582741 -0.005911085 0.009725096 0.0029910342 -0.05120156 -0.04424525 -0.09432546
-0.08375326 -0.003563473 -0.09003386 0.028307227 0.038019173 -0.07566822 -0.04225881 0.05009502
-0.090871446 -0.024754822 0.08748178 0.06994718 -0.1675736 0.010634839 -0.0062388503 -0.068039335
0.024403743 -0.010694733 0.06329187 -0.1876563 0.04256199 0.029558154 -0.06100676 0.0804437
0.118550085 0.059935946 -0.11809154 -0.06801469 0.02579971 -0.016205862 -0.060812715 -0.056858137
-0.031109018 -0.058828045 -0.12552431 -0.047087006 -0.042920712 -0.052991737 -0.054730043 -0.057117462
-0.024740407 -0.0016139732 0.008134571 -0.03808769 -0.06487091 -0.051996436 0.012832698 0.031969726
00000000: b8be 003d 23cd fc3b 2fdc d3bc 4846 0abd
00000010: 59e4 31bc 293c 4cbc b4a6 c1bc 313f 5c3d
00000020: 8103 6e3d 5724 0e3d 0f40 b3bc 8f33 32be
00000030: be5b 94be ba71 90bd 75ae 913c 673d 863d
00000040: 9ff8 e6bb 6d66 bdbd b921 05be 6cd5 2ebe
00000050: a6eb 8ebd 4f2e 203d 57e9 f3bb f94b 55bd
00000060: eba5 c43d ce77 113e ce48 123d 425e 8d3c
00000070: 2a55 5cbd 7657 20be c444 98bd 4bf5 0f3d
00000080: ee79 303e a36f 523d 620a 9abb 1264 debc
00000090: abb0 17be 2626 ffbe 7a51 01bb ca63 8f3d
000000a0: c150 bbbb 0ea7 b8bd adbe ae3c 0064 dfba
000000b0: fbcc 3dbd 379d 60bd 2729 a63d c183 53bd
000000c0: dc5f 76bb f2fe 5cbd 2a8f a8bd 63d3 dcbd
000000d0: cc3a 083d c7c7 ebbd 5d86 4dbc efb9 cebd
000000e0: b701 25bd 968c a6bd 9cad 65bd 3451 6bbd
000000f0: ec42 7f3d 45fc 653c d219 f73d 06b5 cb3c
00000100: 2fe6 233e f673 213d 46e7 1d3b 4009 0ebb
00000110: 478f 35bc abac b4bd 3b43 48ba d206 aa3d
00000120: de3f 213c 2c99 3fbe 2a95 66bd 961c 24bd
00000130: 0861 31be 27b0 7b3c 66a9 17bd 5d2b 7b3d
00000140: 8209 ec39 9683 31bd 5afc 20be 463d 48be
00000150: 766f 44bd fd30 c9bb 0be3 073e 05d2 9cbd
00000160: 67bb 02bd 13e0 c6bd d1cc a2bc 172e 9bbd
00000170: 602e 8b3b f601 6c3d d54b c9bc 99d4 e3bd
00000180: 195b a4bc 0e58 5cbc 3b84 d63c 961f 203d
00000190: 3b7a afbc cc63 70bd bf2b 34bd ed58 64bd
000001a0: 3d51 dbbc 20c9 98bd 524a 85bd 7be4 87bc
000001b0: 0637 b63b c5f2 0cbd 3284 babc b6e5 ca3d
000001c0: 8b75 0d3e df20 5e3c a2f1 32be fddb c8bd
000001d0: d2dc c63d 0276 2bbd 2f7b 09bd 6e2c babd
000001e0: e648 d3be 11b0 aabe 8cbf b2bd 9bdc 183e
000001f0: 2edb 65be 06b7 cfbe 2451 453d f516 0bbe
00000200: ffbb 55be 3692 453c a84c 543e 9636 bbbc
00000210: acbc 00be 94dd a83c 8455 183c 3ae5 f93d
00000220: 9d7c 4aba de16 743d ae7e d2bc 6246 353d
00000230: 9359 a03d 19b4 e83c f272 2f3e dc33 94be
00000240: a66c 9cbe 2615 de3d 0a67 a63d b902 40bb
00000250: f189 24bd 242a 043d 9617 b2bd e417 27bd
00000260: 638e edbc 0ff2 7bbd 7c99 f7bc ef12 3e3d
00000270: 5ee8 1e3d 1586 43bc cc02 bcbd d3fd 19bd
00000280: 390a 7cbd 6c5e 613a 20a5 e43d 47a7 cf3c
00000290: 4e2c 763d a7cb c53d 1b37 343d 1c46 3ebd
000002a0: c4bb bbbd 1fc8 7a3d 29d1 00bc 4058 8dbe
000002b0: 0c86 c33b ef60 453d cebb bebc 82d4 abbc
000002c0: ad6d da3d cf4c 0dbd 2fbc b0bd d100 18bd
000002d0: 3073 66bd bbcd dd3c 8102 193c 4c13 f73d
000002e0: 67bb 5b3c c283 b93d 3157 633d ca21 663c
000002f0: 277b c8bc eefa 22bd c410 5bbc 6f83 b33b
00000300: 5cdb a3bc 1346 59bd b3d7 5cbc 679a 9cbc
00000310: f1e9 56bd dccb 903d 1e8b babd dd42 fdbd
00000320: 1b63 41be 86b5 3bbd c6b1 c1bb 0256 1f3c
00000330: 3a05 443b bab8 51bd 823a 35bd b52d c1bd
00000340: d486 abbd 2889 69bb ac63 b8bd 8fe4 e73c
00000350: feb9 1b3d f1f7 9abd 9317 2dbd 7030 4d3d
00000360: cf1a babd a0ca cabc a629 b33d 7840 8f3d
00000370: 6a98 2bbe bf3d 2e3c 456f ccbb 3558 8bbd
00000380: 5cea c73c f638 2fbc 2b9f 813d f928 40be
00000390: 7b55 2e3d f123 f23c 39e2 79bd abbf a43d
000003a0: 63ca f23d 657f 753d fad9 f1bd 494b 8bbd
000003b0: ea59 d33c 28c2 84bc c116 79bd 14e4 68bd
000003c0: 57d8 febc adf5 70bd 7289 00be 4ede 40bd
000003d0: a1cd 2fbd dd0d 59bd 9c2c 60bd 00f4 69bd
000003e0: 65ac cabc f48b d3ba dd46 053c d601 1cbd
000003f0: 0adb 84bd 37fa 54bd 3d40 523c b0f2 023d

fc.bias f4 [10]
0.05063715 0.081280746 0.011810873 -0.050983023 -0.04809395 -0.022296999 -0.025829764 -0.008634521
-0.016596012 0.013533677
00000000: e668 4f3d 8576 a63d 6482 413c 93d3 50bd
00000010: 29fe 44bd 32a8 b6bc f198 d3bc ce77 0dbc
00000020: 5cf4 87bc 5bbc 5d3c
