mnist_cnn.pth (torch, 84572 bytes, 6 tensors)

conv1.weight f4 [16, 1, 3, 3]
000000 19 5b da 3d 89 f4 5e be 35 c9 1b bf 8b d8 3f bd
       0.10661907 -0.2177297 -0.6085389 -0.04683737
000010 13 08 67 3e 09 d3 56 3d dc 03 70 3e 6e 78 6e 3e
       0.22561674 0.052447353 0.23438972 0.23288128
000020 4b 4c 2b 3e 0c aa 0e bf 61 c5 e2 be 9c cf 3e be
       0.16728322 -0.5572822 -0.44291213 -0.18633884
000030 78 4c 86 3e 01 b6 3d 3e 49 28 74 3b ec f8 c3 3e
       0.26230216 0.1852646 0.0037255457 0.3827585
000040 9f c1 21 3e 38 48 0a 3e b3 56 b9 3e d7 59 02 3f
       0.15796517 0.13504112 0.3619896 0.50918335
000050 ad 98 3b be 44 0c d0 3e d2 fc 81 be da 5f 40 bf
       -0.1831996 0.40634358 -0.253882 -0.7514626
000060 3d 97 81 be 55 be 26 bf 6e 15 e2 3d 9e b2 cc 3d
       -0.25310698 -0.65134174 0.11039244 0.09995006
000070 c8 97 12 3f d8 a7 9b 3e 86 3f c8 3e ef 3a 19 be
       0.5726285 0.30401492 0.39110965 -0.14963888
000080 c5 6a a7 be ac 22 cd be b5 27 1b bf 58 85 24 3e
       -0.32698646 -0.40065515 -0.60607463 0.16066492
000090 61 b0 8e 3e 7d e6 92 3e a1 34 81 be 5e f0 cd 3e
       0.2786894 0.28691474 -0.25235465 0.40222448
0000a0 d4 10 21 be 74 af 2c bd 7d 39 d8 3e 09 c2 9b be
       -0.15729076 -0.042159513 0.4223136 -0.30421475
0000b0 1a a8 25 bf f9 ac 89 be 38 83 04 bf 44 aa 23 3c
       -0.6470963 -0.2688978 -0.51762724 0.009989325
0000c0 53 ff d6 3d 70 a8 07 3e 4e bb 15 bd cd 26 09 3e
       0.10497918 0.13247848 -0.03655558 0.13393708
0000d0 5b 24 33 3e 5f 45 a1 3e 7b b9 1d 3f ba 3b a6 3d
       0.17494337 0.31498238 0.61611146 0.08116861
0000e0 5b 15 a4 3e 1e cb 6d be 61 65 dc 3e 26 60 02 be
       0.32047543 -0.23222014 0.43046096 -0.1273199
0000f0 d1 7f 07 bf a1 94 d5 be e6 43 0c bf 99 77 0e bf
       -0.5292941 -0.41714957 -0.54791105 -0.5565124
000100 5e 85 f8 3d ed c9 84 3c 2b 73 80 be 3f 91 9c 3d
       0.12134813 0.016209567 -0.25087866 0.07644891
000110 48 e1 c0 3e 24 74 12 bf 07 82 ba 3d a1 ba 6d 3e
       0.37671876 -0.57208467 0.09106832 0.23215725
000120 07 21 16 bc 77 7f 5a bd c2 8f 59 3e a5 c7 72 bd
       -0.009163148 -0.053344216 0.21246246 -0.059272427
000130 0c 2d 96 3e d2 c8 b9 bd de ec ae 3e 6f 11 3e 3d
       0.29331243 -0.090715066 0.3416509 0.046403345
000140 b7 5f 3b 3e 78 35 e1 be ea e1 27 3e e0 03 b0 3e
       0.18298231 -0.43986106 0.16394773 0.34377956
000150 27 0a 03 bd 41 80 5a 3e da f1 55 3e 92 e1 08 3e
       -0.031992104 0.21337987 0.2089304 0.13367298
000160 b4 13 8e 3c d0 6c 10 3e 8a 46 88 be 06 74 08 be
       0.01734338 0.14104009 -0.26616317 -0.1332551
000170 1c c1 72 be f4 60 a9 be 9a 06 7b be df 6e ce 3e
       -0.23706478 -0.33081782 -0.24514237 0.40318963
000180 d5 03 a6 3e 1e cf c4 3e 03 19 cc 3d c4 cd f3 bd
       0.324248 0.38439268 0.09965708 -0.11904481
000190 1a 84 68 3d 19 85 68 3d 8e 91 cd 3e d0 4b 71 3e
       0.056766607 0.056767557 0.40150112 0.23564076
0001a0 12 12 8a 3e 8a 85 c1 3e 2a e2 d8 be b0 bf 12 bf
       0.26966912 0.37797195 -0.4236005 -0.5732374
0001b0 64 d3 ea bd fe 79 0e 3f c2 b5 db 3e 10 b2 f4 be
       -0.11466101 0.55654895 0.42912108 -0.477921
0001c0 06 c9 2a be f8 62 c9 3e 12 a0 e3 be b5 01 26 bf
       -0.16678247 0.3933332 -0.4445806 -0.64846355
0001d0 6b 14 c7 be 98 86 9c 3d fe b2 d3 bd 12 75 2e bf
       -0.38882765 0.07642859 -0.103368744 -0.68147385
0001e0 67 d8 09 3f 17 e5 b9 3c 67 6b 2f bf ae b7 9f 3e
       0.5384583 0.022692246 -0.6852326 0.31194824
0001f0 4a da 25 3f 55 39 04 be e8 a6 c9 3d 5a dc 86 3e
       0.6478621 -0.12912495 0.09846288 0.2633999
000200 be 3c a0 3e 54 e0 9f be 22 16 c5 3e 8f 39 97 3e
       0.31296343 -0.31225836 0.38493448 0.295361
000210 64 29 25 bf 2f bc d3 be ba bb ad bc 37 f6 10 3c
       -0.6451628 -0.4135451 -0.021207679 0.008847765
000220 f4 c5 7c be ac 90 0f bf c1 8b b3 3e ce 4d 86 3d
       -0.24684888 -0.56080127 0.3506756 0.06557809
000230 2b 77 22 be e1 25 ab 3e 12 61 09 3e 1b 50 07 bd
       -0.15865771 0.33427337 0.13415936 -0.03303538

conv1.bias f4 [16]
000000 50 aa 5e 3b 06 91 86 3d 1e 39 bd 3c 82 8f f2 bd
       0.0033976026 0.0657063 0.023098525 -0.11843778
000010 a2 d0 ee bb 3b b6 dc 3d 1b 0a 29 3d 68 62 31 be
       -0.0072880546 0.10776945 0.041269403 -0.17322695
000020 0b 55 ae be 8d d1 1b bd f8 02 e8 bd cb 94 8a be
       -0.34049258 -0.03804164 -0.11328691 -0.27066645
000030 b7 2b d0 3d f2 e3 ce bd 8e 47 60 bd 8c bb 10 3e
       0.10164588 -0.10102071 -0.05475574 0.14134043

conv2.weight f4 [32, 16, 3, 3]
000000 8a 06 09 3e 43 3c 2c be 9d 00 33 bd 16 55 00 3e
       0.133814 -0.16819863 -0.043701757 0.12532458
000010 c0 7d 19 be c6 ba 89 bd 97 d5 b3 bd 4e 75 9d be
       -0.14989376 -0.06725077 -0.087809734 -0.3075356
000020 74 ac f1 bd a4 a4 8c 3d 24 90 21 be 95 9a 0c be
       -0.11800471 0.0686734 -0.15777642 -0.13730843
000030 4a e6 c2 3a dd c6 19 be 80 24 56 bc c3 2c 5e be
       0.0014869657 -0.15017267 -0.013070226 -0.21696763
000040 6a f1 e3 bd 73 ea 32 be 95 97 a9 bd 41 35 c4 bd
       -0.111300305 -0.17472248 -0.08280865 -0.0958047
000050 bd 90 77 bd 20 16 fd 3d aa d8 0c bd a7 28 3e be
       -0.060440768 0.12357736 -0.034386314 -0.18570195
000060 09 77 1d 3e 0c 0e c9 bd b8 62 84 bd 06 ea a5 be
       0.1537744 -0.09817132 -0.064641416 -0.32405108
000070 50 a2 21 be 10 99 73 be 24 1a 08 3e b8 33 d0 be
       -0.15784574 -0.23788857 0.13291222 -0.40664458
000080 ee c8 fa be 11 33 c5 3d 21 b2 c3 be de 49 9f be
       -0.48981422 0.09628881 -0.3822184 -0.31111044
000090 55 af 20 3d e9 fe 3a be 4b 58 8b 3c 05 d1 8e 3e
       0.03922971 -0.18261303 0.017009875 0.27893844
0000a0 b8 8f 0d 3b f8 34 b9 bb 66 f2 6d 3e 5c 7d 58 bd
       0.0021600556 -0.0056520663 0.23236999 -0.052853927
0000b0 a6 da fd bd 50 a4 a5 bd 06 0d 6f 3d f0 01 30 3b
       -0.123952195 -0.08087981 0.05836203 0.0026856624
0000c0 89 53 ea bd 6a 5d 56 3d 54 4c b8 3d b6 b2 d9 bd
       -0.11441714 0.05233518 0.089989334 -0.106297895
0000d0 d0 1a aa bd 89 72 32 3d 20 a1 15 be 3f 44 1e be
       -0.08305895 0.04356626 -0.14612246 -0.15455721
0000e0 27 cd 65 bd 76 c4 c7 3c 01 35 50 be d0 26 68 be
       -0.05610385 0.024385672 -0.2033272 -0.22671056
0000f0 6a db 6d 3e 4f d9 84 bd a7 08 92 be 3f b4 c9 be
       0.23228231 -0.06486761 -0.28522226 -0.3939533
000100 a8 1e 35 3e 61 cd 6e 3e 5a b1 b1 3d 21 07 fe 3d
       0.17687476 0.23320533 0.08676405 0.124037035
000110 fb 0b fc 3d c9 40 00 bc 62 9d 03 3e 10 55 13 3e
       0.123069726 -0.007827946 0.12853006 0.14387918
000120 f3 99 9d bb 96 69 7d be af e7 ee 3d 7b f8 a9 bd
       -0.004809612 -0.24747309 0.11665284 -0.08299347
000130 b2 d1 dd bd ec 2c af 3d fc de 07 be 68 55 bb bd
       -0.10831012 0.0855349 -0.13268656 -0.09147149
000140 9f 1f ce 3d 52 4a 3e be 8b a5 01 be c3 cb 6c 3e
       0.10064625 -0.18583038 -0.12660806 0.23124604
000150 a5 74 db bd 4e 4d de 3b 40 47 3a 3e a6 b5 04 be
       -0.107156076 0.006784118 0.18191242 -0.12959918
000160 6e 38 85 bd f1 48 c0 3c 91 d2 49 be 4b fe 33 be
       -0.06504904 0.023472281 -0.19709231 -0.17577474
000170 6e 0e 52 3e 5d e7 f9 bc df 4e 72 3d d6 bc 96 bc
       0.20513317 -0.03050583 0.05915725 -0.01840059
000180 14 94 a1 bd 8f ec 6b bd 93 05 95 3d d5 68 a7 bb
       -0.07889572 -0.057598647 0.07276454 -0.0051089325
000190 3e 26 3f be a2 49 42 3d 85 96 92 3e bc f8 01 be
       -0.18666932 0.047433503 0.28630462 -0.12692541
0001a0 c2 a1 2f bd 4f c8 0d 3d 47 68 42 be 58 62 a1 bd
       -0.042878874 0.034614857 -0.18985091 -0.07880086
0001b0 d5 8d ef bd 70 70 99 3c b4 bf 26 3d 30 81 89 bd
       -0.11696974 0.018730372 0.040710166 -0.06714094
0001c0 a6 1a 58 bd a3 0f 70 bd 54 cc ed bd 38 e6 33 bd
       -0.05275979 -0.058608662 -0.11611238 -0.043920726
0001d0 99 de 04 bd 6a 83 7e 3e ec 54 8f bd db e5 a5 bd
       -0.03243885 0.24854818 -0.069986194 -0.08100482
0001e0 5b 42 1e 3e ed 5c a0 bb 74 2b 12 bd 0b a8 b6 bc
       0.15455 -0.00489389 -0.03568597 -0.022296926
0001f0 9e ef 65 be c5 60 e6 bd 79 0b 31 be f5 ae 94 3c
       -0.22454688 -0.11248926 -0.17289533 0.018149832
000200 51 1e b0 3d 62 3f 1a bd 57 0f 99 bd 6b 08 88 3d
       0.085995324 -0.037658103 -0.07473629 0.066422306
000210 1e ed 4e be 07 a9 39 bd da fe f7 3d 7e 74 33 3e
       -0.2020764 -0.045327213 0.12109156 0.17524907
000220 c5 fc 02 3c 7f 61 a8 bd 5d fd 1a 3e fa 12 b2 3c
       0.007994835 -0.08221721 0.15135713 0.021737564
000230 32 db 2a be 95 b5 f7 bd 74 89 4c be 82 c7 b3 bd
       -0.16685179 -0.12095181 -0.19974309 -0.087782875
000240 f4 61 3d 3d d2 a2 b4 3c 74 0f 5e 3e 3c ab a2 be
       0.046235994 0.022050295 0.21685582 -0.31771266
000250 6d de ae be 22 af 5b be 3a 19 90 3c 25 8e ae 3d
       -0.34154072 -0.21453527 0.017590154 0.08523206
000260 6a 5a 40 3d f2 01 c6 bc 33 85 b2 3d 50 24 16 3e
       0.046961226 -0.02417085 0.08716812 0.1466229
000270 f7 2d e6 bd 4f 23 3c be 56 fe 87 be 86 55 0d 3e
       -0.11239236 -0.18372844 -0.2656123 0.13802156
000280 44 c6 76 3d e8 f0 f7 3d fa b0 7a bd 46 a9 23 bc
       0.060247675 0.12106496 -0.061203934 -0.009989088
000290 2c 53 8c 3d 8f 04 08 be b7 88 83 bc 89 a6 a8 bd
       0.06851801 -0.13282989 -0.016056402 -0.08234889
0002a0 a2 ac 1f be 62 83 49 be 8d 1d f1 bd 10 08 94 3d
       -0.15593198 -0.19679025 -0.117732145 0.072281
0002b0 e4 fe 39 3d bd 44 20 3e e0 d4 06 be 4b b2 24 bd
       0.0454091 0.15651222 -0.13167143 -0.040209096
0002c0 a9 8d 5a 3e 3f 52 28 be 67 42 4f bc 5e a4 56 be
       0.21343102 -0.16437624 -0.012650109 -0.20961139
0002d0 68 6c c4 bd 9a 9f d2 3d 92 02 62 bd f4 81 7b be
       -0.09590989 0.10284348 -0.055178232 -0.24561292
0002e0 31 f8 84 be 4d ec 9d bc 21 4d 88 be 64 58 16 be
       -0.25970605 -0.019277716 -0.26621345 -0.14682156
0002f0 7f 4a 5b bd 09 d3 ab bd 74 a6 e1 3d 5a c6 c2 3d
       -0.053537842 -0.08389861 0.110180765 0.09510489
000300 c5 4c 1b be 61 7d 2c be 1a a3 71 be 79 b9 5a bb
       -0.15166004 -0.16844703 -0.23597375 -0.003337471
000310 b3 33 7b 3d c0 c0 0b 3e de 31 8d 3d 7d 15 ba 3d
       0.0613286 0.13647747 0.06894277 0.0908613
000320 7d 39 7e bd 24 ee 6a be 2d 6c c8 bd 2e 31 0d 3e
       -0.062066544 -0.22942406 -0.09786258 0.13788292
000330 52 4d 39 be d7 2e 6f be 09 f8 55 be 05 b7 81 3c
       -0.18095902 -0.23357712 -0.20895399 0.01583434
000340 be f3 89 3e 0e dc 2d 3d 0a 7d 91 bd 33 a9 3e be
       0.26943773 0.04244619 -0.071039274 -0.18619232
000350 d5 cf 81 bd eb 4c 41 3d 5d 12 12 bd 3f 80 8d 3d
       -0.06338469 0.047192495 -0.035662044 0.069092266
000360 ff 71 46 be 53 eb 4e 3d 74 63 c3 3d be d3 c0 be
       -0.19379424 0.05051739 0.095404536 -0.37661546
000370 4b 1b 2f be ef 93 ce bd 34 02 6d 3d c3 78 80 3d
       -0.17100255 -0.1008681 0.05786343 0.062730335
000380 9b 47 3c 3d ec 0d 8e bd c0 a4 55 3d d4 30 22 3d
       0.045966726 -0.06936249 0.05215907 0.039597347
000390 46 df eb bd d2 e1 18 be 5d f3 a5 bc a7 4f 85 bd
       -0.115171954 -0.14929894 -0.020257646 -0.06509333
0003a0 17 f5 9e 3d 7f 95 c6 3b 76 c3 b1 3c 65 0c 08 3e
       0.07761591 0.006060302 0.021699648 0.13285978
0003b0 1c 64 a5 bc 05 29 53 be 17 a6 89 be 04 63 3c be
       -0.020189337 -0.20621116 -0.2688453 -0.18397146
0003c0 81 bd 85 3d f4 44 de 3d 35 98 a1 bc e7 e9 d2 ba
       0.065302856 0.108529955 -0.019725898 -0.0016091437
0003d0 79 45 fa 3d 79 5e d8 3c fc 82 8f be 3d 7f 0e be
       0.12220282 0.026412236 -0.2802962 -0.13915725
0003e0 1a ae fd bb 19 4b 1b be 14 11 51 be d3 cc 71 bd
       -0.007741702 -0.15165366 -0.20416671 -0.059033226
0003f0 61 3d 58 3d b1 ed 1c 3e bb a4 88 3d 78 bf 35 bd
       0.05279291 0.15325047 0.06672045 -0.044372052

conv2.bias f4 [32]
000000 71 d3 e3 3b aa 14 14 bd 4a f6 17 be 5f fc d8 bd
       0.006952696 -0.03615252 -0.14840046 -0.10595011
000010 41 50 16 be 75 76 95 bd cd 64 c0 bd 7d db af 3a
       -0.14679052 -0.072979845 -0.09394226 0.0013416853
000020 56 56 af bd 20 88 d7 bd f5 7d 11 bd 75 17 b5 bc
       -0.08561389 -0.10524011 -0.035520513 -0.022105912
000030 89 8c 3b be 7e fa 5b be 6e 8d 64 3d 5a 69 00 be
       -0.18315329 -0.21482274 0.05579894 -0.12540188
000040 db e2 3e 3c f5 d1 b9 3c e0 a5 e1 3d 34 b2 c4 3a
       0.011650766 0.022683123 0.11017966 0.0015006722
000050 82 47 8b bd f8 a1 6b bd 82 d0 96 3d 46 b5 49 3c
       -0.068007484 -0.057527512 0.073639885 0.012311285
000060 5c c4 0f bd 87 4a 37 be 64 c7 5c bd d1 46 27 be
       -0.035099372 -0.17899524 -0.05390109 -0.16335608
000070 5f ae 00 be 72 32 8e bd ae 58 b3 bc dc 6b 63 bc
       -0.12566517 -0.069432154 -0.021892872 -0.013880696

fc.weight f4 [10, 1568]
000000 b9 57 f4 bb 0b e1 d2 3c e2 b9 b5 bd fc 77 07 be
       -0.0074567464 0.025742074 -0.08873345 -0.13229364
000010 1d 76 9e 3d 4b 19 07 bd c2 e6 33 be 51 eb ab 3d
       0.07737372 -0.032983106 -0.17568496 0.083944924
000020 b4 51 01 bd a6 86 52 be 0c ca 74 be 8b 26 4b be
       -0.03157206 -0.20559177 -0.239052 -0.19838922
000030 bf 17 9e be 49 d8 ec bc fd ad 8a 3d 77 7d e1 bb
       -0.30877492 -0.028911727 0.06771467 -0.0068814117
000040 62 f6 47 bd a3 cf 9e 3b 81 24 87 bc 02 f0 e4 3d
       -0.048818953 0.0048465296 -0.016496899 0.1117859
000050 a5 f4 03 bc 53 bd 91 3d 01 45 6c 3c 3a 09 d2 3c
       -0.008053933 0.07116189 0.014420749 0.025639165
000060 39 e2 76 3e 56 d7 b0 3d 49 12 2a 3e f6 dd 84 3d
       0.24109735 0.08634822 0.16608538 0.06487648
000070 91 22 e8 3c 4a f3 a8 3a ea ab b0 bc 47 63 29 3e
       0.028336795 0.0012889889 -0.02156635 0.16541778
000080 66 3c 2b bc b8 80 16 3c 68 19 72 3d c0 6c 24 3d
       -0.010451412 0.009185962 0.05910626 0.040142775
000090 13 9a a4 3d eb 37 15 3e 42 9d 06 be e5 27 ac be
       0.080372 0.14572112 -0.13145927 -0.33624187
0000a0 c0 e6 11 be 24 4d c8 bd ce f3 ad 3d 30 d0 96 bc
       -0.1424818 -0.097803384 0.08493768 -0.018409818
0000b0 b3 89 37 3c ed 98 56 be 42 67 ed be e0 fb 74 be
       0.011202264 -0.20956774 -0.46367842 -0.23924208
0000c0 d0 f7 31 be 21 d4 32 3c 66 16 8d bb e0 62 aa 3d
       -0.17379689 0.010914833 -0.0043056486 0.0831964
0000d0 4c 4e 1c 3c 59 61 c6 bd c9 80 c9 bd 1e 02 73 bb
       0.009540152 -0.09686536 -0.09839017 -0.003708012
0000e0 9c b8 07 3d 2c 64 34 3d 22 82 cc bd 6c 2d 75 3d
       0.03313504 0.044040844 -0.09985758 0.05985777
0000f0 55 2e 43 3c 4a 33 cf bc 32 61 5a bd 14 f3 78 bd
       0.011912902 -0.025293011 -0.05331535 -0.060778692
000100 f4 80 14 be d1 be 90 be c7 f1 a4 bd 46 89 b9 3c
       -0.14502317 -0.2827058 -0.08053928 0.022648465
000110 ad fb 2a 3d 0d a7 13 be 69 78 83 bd c6 eb 82 be
       0.041743923 -0.14419194 -0.06419451 -0.25570506
000120 3f e1 71 be 96 b2 1c bd cc 29 99 3d c8 77 e9 3d
       -0.23621081 -0.03825625 0.07478675 0.113997996
000130 54 60 ee bd b7 fe 6d 3d fc 9d 4f bc 98 58 69 be
       -0.11639467 0.058104243 -0.012671944 -0.22787702
000140 fd 90 06 be 6d 2c 2b 3d 22 cc 14 3d 89 c1 d4 bc
       -0.13141246 0.041790415 0.03632749 -0.025971191
000150 76 b7 46 3d aa a9 13 bd b3 d5 2d bd 85 ec d4 3d
       0.048514806 -0.036050476 -0.042440128 0.10396675
000160 43 84 88 bd d5 c1 0f bb cd 92 04 3c c6 91 1c bd
       -0.06665852 -0.0021935601 0.008091641 -0.038224958
000170 14 41 fe 3c d1 e7 13 3d cf 91 bf bd 72 da 5d bd
       0.031036891 0.03610975 -0.09353983 -0.054163404
000180 47 ef 46 be e4 5d 17 3d 12 83 40 bc a8 e6 52 bd
       -0.19427215 0.036954775 -0.01175 -0.051489502
000190 1b c0 2a bd 33 c9 d8 bc 29 fb d9 bd dc 0d 06 bd
       -0.041687112 -0.026463127 -0.10643608 -0.03272806
0001a0 c7 10 d2 3d da fa 2d bd 3a 10 18 3d ef b9 98 bc
       0.10257106 -0.04247556 0.03712485 -0.018643348
0001b0 e4 d9 fc bd ae b5 66 bc 27 82 8f bc 0a 00 86 bd
       -0.12346247 -0.014081402 -0.017518116 -0.06542976
0001c0 02 0c 49 3c 98 3b 10 3d 41 36 fb 3d 10 62 de bc
       0.012270929 0.035213083 0.122662075 -0.02714637
0001d0 a3 29 8b bc 56 d4 7c 3d 23 61 3e 3d 0e 58 33 3c
       -0.016987627 0.061725937 0.046479356 0.010946287
0001e0 85 8b a0 3d b7 b0 1d bd 17 1f 46 be ce 09 dd bd
       0.07839111 -0.038498607 -0.19347797 -0.10792886
0001f0 ee 85 b9 39 24 9e 5b be ee 72 98 3c ec ae 80 bd
       0.00035385735 -0.21447045 0.01860949 -0.06283364
000200 44 5e f7 3d aa f1 87 bd 20 36 08 be 51 7c a1 bd
       0.120785266 -0.06637891 -0.13301897 -0.078850396
000210 42 ad fc bd f9 54 54 bc 4d 5a 3d 3c 30 8f a3 bd
       -0.12337734 -0.012959712 0.011557174 -0.07986295
000220 6e a4 82 bd 96 b1 80 bd 14 fa 49 bd 3f e5 97 bd
       -0.06379019 -0.06283872 -0.04931076 -0.07416772
000230 04 f7 6d bc 99 c2 74 3d 39 00 61 3c f5 cb b6 bb
       -0.014524225 0.059755895 0.013732963 -0.005578513
000240 f9 55 be 3d 89 86 41 3d 50 0c a0 bb 82 03 82 3d
       0.09293742 0.047247443 -0.0048842803 0.06348325
000250 52 43 b2 bc 07 63 50 3d ea 68 d4 bd 8e 88 ba 3c
       -0.021760616 0.05087569 -0.10371573 0.022770192
000260 fb 14 44 bd c1 20 b6 bd 34 ef 8c bd da 26 8f bd
       -0.04787157 -0.08892966 -0.06881562 -0.06989832
000270 86 5e d0 bd 08 7f 00 bd e2 bb 8c bd ea 25 a8 be
       -0.10174279 -0.031371146 -0.06871773 -0.32841426
000280 0a a7 17 3e 0f 95 e2 3d a2 d9 cb bd 81 0a e5 3c
       0.14809814 0.11063587 -0.099536195 0.02795911
000290 a6 d2 30 3c 99 03 06 3e 24 1e ad be 10 c2 df bb
       0.01079241 0.1308731 -0.33812058 -0.006828554
0002a0 dd 59 c6 bc 3a a6 70 bd 05 5d 8a bd 86 95 80 3c
       -0.024212772 -0.058752276 -0.06756023 0.015696298
0002b0 6b 43 99 3d 6f 20 21 3d d8 f2 2e 3d 82 34 63 bd
       0.07483562 0.03933757 0.042712063 -0.055469997
0002c0 bf 56 89 be 9f 7c 05 be 40 cb 1d 3d b7 fd 40 3e
       -0.26823995 -0.1303582 0.038523912 0.18846785
0002d0 a0 05 11 3e 0a 2f 01 bd 7d fe 7c 3d d7 dd 77 bd
       0.14162302 -0.031539 0.061766136 -0.060514297
0002e0 3b be aa 3c 61 50 ae 3c a6 21 9e 3b a4 d2 fe bd
       0.020842662 0.021278562 0.0048257886 -0.1244252
0002f0 f7 40 88 3d 22 35 24 bd 9e 4e 90 3d f8 df 36 3d
       0.06653016 -0.040089734 0.07046245 0.044647187
000300 b9 2f 55 3d d2 77 3f be c6 13 5e be 14 50 21 3d
       0.052047465 -0.18698052 -0.2168723 0.03938301
000310 f6 43 32 bc 0e 6d b2 bd d1 b8 4d bd e6 c7 a4 3d
       -0.010880461 -0.08712207 -0.050225083 0.0804594
000320 90 60 15 be 66 1b 09 3b 29 f2 c8 3b 3a c7 62 3c
       -0.14587617 0.0020920872 0.0061323834 0.013841445
000330 48 de b7 bd c7 8e ef 3c 2c 96 e3 bc 42 bf 33 bd
       -0.08977944 0.029242886 -0.027781568 -0.04388357
000340 19 a2 d5 bd b9 d2 7f bd 92 45 1a bd 68 13 5e 3d
       -0.10431308 -0.06245682 -0.037664004 0.054217726
000350 d9 9b 54 3c 69 73 a8 3c 39 fd 4a bd 1b f5 91 3b
       0.01297661 0.020562844 -0.0495579 0.0044542677
000360 8f 41 0c be 09 c7 59 bd b9 f1 2a 3d a3 4a bd 3d
       -0.13696884 -0.05316833 0.04173443 0.092427514
000370 2d a0 ab bd c0 27 08 bd 4f 73 8f 3d a8 4a c7 bc
       -0.083801605 -0.033241034 0.07004415 -0.024327591
000380 97 2a 52 bd f3 79 70 3c ed 3e 15 be f4 65 01 3e
       -0.051310148 0.014677512 -0.14574786 0.12636548
000390 e4 2b 6c 3d de 59 b6 3a 94 cb 65 bd 1f 72 2b bd
       0.057659045 0.001391228 -0.05610235 -0.04185688
0003a0 9c fc 3a bd 77 f8 a4 3c 79 9e 76 3c 35 ee 55 3b
       -0.045651063 0.020138009 0.015052431 0.0032643203
0003b0 97 c8 f2 bb 39 d2 04 3d 45 44 7b 3d 26 d4 8f 3d
       -0.007409166 0.032427046 0.061344404 0.07022886
0003c0 03 25 a8 3b 08 fe 04 be 9d 48 4b be 32 25 24 be
       0.0051313653 -0.1298753 -0.19851919 -0.16029814
0003d0 01 bb 7b bd 79 b4 15 bd d8 12 7e bd 1e 4d 2e bd
       -0.061457638 -0.036549065 -0.06202969 -0.042554013
0003e0 5d c6 3f bd e9 75 17 3d 01 e1 a6 bd 00 84 27 bd
       -0.046820033 0.036977682 -0.08148385 -0.04089737
0003f0 bc 59 03 bd 0a 4c 32 3d fc 82 dc bc 3d c6 05 bb
       -0.032068 0.043529548 -0.026917927 -0.0020412349

fc.bias f4 [10]
000000 e6 85 5b 3d 3b b7 53 3d 74 9d 59 3c a0 e1 06 bd
       0.053594492 0.051688414 0.013282169 -0.032930017
000010 d0 00 9d bd 96 4d c3 bb 73 70 84 3c 4a 01 cf b9
       -0.076661706 -0.0059601767 0.016166901 -0.00039483077
000020 89 bf d8 bc 86 cf 72 bc
       -0.026458519 -0.014819985
